Model: "sequential"
_________________________________________________________________
Layer (type)                 Output Shape              Param #   
=================================================================
conv2d (Conv2D)              (None, 224, 224, 64)      9472      
_________________________________________________________________
max_pooling2d (MaxPooling2D) (None, 112, 112, 64)      0         
_________________________________________________________________
conv2d_1 (Conv2D)            (None, 112, 112, 192)     110784    
_________________________________________________________________
max_pooling2d_1 (MaxPooling2 (None, 56, 56, 192)       0         
_________________________________________________________________
conv2d_2 (Conv2D)            (None, 56, 56, 128)       24704     
_________________________________________________________________
conv2d_3 (Conv2D)            (None, 56, 56, 256)       295168    
_________________________________________________________________
conv2d_4 (Conv2D)            (None, 56, 56, 256)       65792     
_________________________________________________________________
conv2d_5 (Conv2D)            (None, 56, 56, 512)       1180160   
_________________________________________________________________
max_pooling2d_2 (MaxPooling2 (None, 28, 28, 512)       0         
_________________________________________________________________
conv2d_6 (Conv2D)            (None, 28, 28, 256)       131328    
_________________________________________________________________
conv2d_7 (Conv2D)            (None, 28, 28, 512)       1180160   
_________________________________________________________________
conv2d_8 (Conv2D)            (None, 28, 28, 256)       131328    
_________________________________________________________________
conv2d_9 (Conv2D)            (None, 28, 28, 512)       1180160   
_________________________________________________________________
conv2d_10 (Conv2D)           (None, 28, 28, 256)       131328    
_________________________________________________________________
conv2d_11 (Conv2D)           (None, 28, 28, 512)       1180160   
_________________________________________________________________
conv2d_12 (Conv2D)           (None, 28, 28, 256)       131328    
_________________________________________________________________
conv2d_13 (Conv2D)           (None, 28, 28, 512)       1180160   
_________________________________________________________________
conv2d_14 (Conv2D)           (None, 28, 28, 512)       262656    
_________________________________________________________________
conv2d_15 (Conv2D)           (None, 28, 28, 1024)      4719616   
_________________________________________________________________
max_pooling2d_3 (MaxPooling2 (None, 14, 14, 1024)      0         
_________________________________________________________________
conv2d_16 (Conv2D)           (None, 14, 14, 512)       524800    
_________________________________________________________________
conv2d_17 (Conv2D)           (None, 14, 14, 1024)      4719616   
_________________________________________________________________
conv2d_18 (Conv2D)           (None, 14, 14, 512)       524800    
_________________________________________________________________
conv2d_19 (Conv2D)           (None, 14, 14, 1024)      4719616   
_________________________________________________________________
conv2d_20 (Conv2D)           (None, 14, 14, 1024)      9438208   
_________________________________________________________________
conv2d_21 (Conv2D)           (None, 7, 7, 1024)        9438208   
_________________________________________________________________
conv2d_22 (Conv2D)           (None, 7, 7, 1024)        9438208   
_________________________________________________________________
conv2d_23 (Conv2D)           (None, 7, 7, 1024)        9438208   
_________________________________________________________________
flatten (Flatten)            (None, 50176)             0         
_________________________________________________________________
dense (Dense)                (None, 4096)              205524992 
_________________________________________________________________
dense_1 (Dense)              (None, 4704)              19272288  
_________________________________________________________________
reshape (Reshape)            (None, 7, 7, 96)          0         
=================================================================
Total params: 284,953,248
Trainable params: 284,953,248
Non-trainable params: 0
_________________________________________________________________
